Spaceship Titanic/data/model_35.pth (torch, 4005 bytes, 4 tensors)

weight f4 [12, 29]
0.0016022377 0.10810474 0.0687386 0.091262095 -0.17318599 -0.14142476 0.07014605 -0.000109208246
0.12282606 -0.05472008 -0.17370734 -0.12353412 0.007561924 -0.18030702 0.011747123 -0.058112055
-0.008693156 -0.089151084 -0.10039012 0.12997787 -0.015849134 0.11800299 0.0071961074 -0.08977107
0.1335466 -0.17339538 -0.17823449 -0.12981752 -0.027571777 0.30981538 0.034503788 0.010496956
-0.070283405 -0.09487522 -0.15505584 0.057571217 0.071052976 -0.4629171 -0.1432364 0.0029088964
-0.15678257 0.1548938 -3.1943142e-05 -0.025604531 0.014966742 0.073961526 -0.010018697 -0.013868914
0.07709381 -0.11260839 -0.13034382 0.06204292 -0.100487426 -0.06385791 0.019911068 -0.077039525
-0.007183814 0.15637459 0.51873356 -0.21768236 0.04810816 -0.030062405 0.14381324 -0.13328198
-0.010198523 -0.089951344 0.17823884 -0.24019903 0.16936763 -0.11635246 0.062358018 0.09649476
-0.027793847 -0.17000172 -0.03148751 -0.119770326 0.0376066 0.046929058 0.14534007 -0.19905768
-0.004261029 0.08171218 -0.13118267 0.053306166 0.12853219 0.067863345 0.10150277 1.0672956
0.124680184 -0.24435116 -0.049556583 -0.082573436 0.060104746 0.019962095 -0.042030953 0.30174822
-0.28309858 0.44709796 -0.097693354 0.06562308 0.06018543 -0.14605545 -0.073834956 -0.18552025
0.23473933 0.26814425 0.18530962 0.017195 -0.17246595 0.096554175 0.12426291 -0.023055157
0.19265407 -0.019894121 -0.14336467 -0.046479423 -0.0654361 -0.09688732 -0.0021068202 -0.0787356
0.14296618 -0.06591285 -0.17650317 -0.09285239 -0.17611392 0.17502166 -0.23404297 0.14132856
-0.033514466 -0.09086959 -0.0086323675 -0.10486449 -0.08662696 0.06012556 0.1210475 0.13452788
-0.09659259 0.1979084 0.11735942 -0.13496298 -0.033483148 0.010437376 -0.11197184 -0.027109519
0.20421103 -0.19500606 0.17188488 0.16883561 0.091626905 0.07373355 0.04831732 0.069942735
0.10458099 0.05688085 -0.14466201 -0.022100141 0.031499222 -0.13440327 -0.036351107 -0.16952638
0.15838592 0.18586624 0.09333104 0.0659959 -0.082859874 -0.102725714 0.07193843 0.056894
-0.041011445 0.12618059 -0.1359857 0.00646005 -0.18645586 0.109716676 0.8665663 -0.16103391
-0.053200796 -0.14317481 0.11725728 -0.11583298 0.08374945 0.06199432 0.0830004 -0.29530296
0.38093457 -0.20616917 0.015771313 0.103131294 -0.046340786 0.11924078 -0.1524015 0.024587184
0.14795078 -0.14244613 0.10618762 -0.17050117 0.0921171 -0.07008995 -0.007966772 0.17386438
-0.11791738 -0.06792469 0.037215702 -1.0888909 0.19823167 0.20375279 0.2619614 -0.15743923
0.11828407 0.22032687 -0.021671198 0.32659373 0.40598902 -0.32900372 0.17719366 0.06323744
-0.03177297 0.032149658 0.04034852 0.16417606 0.06796933 -0.08056281 0.022130413 0.12689728
0.32761905 -0.03578825 0.090026945 0.29119936 0.4971693 0.045464884 0.0522051 0.3178745
0.02550924 -0.032550428 -0.045520898 0.07804454 -0.17186049 -0.11247883 -0.082075685 -0.10276326
0.24026226 -0.1800199 -0.21019378 -0.17210512 0.14961466 0.106253184 -0.023330906 -0.16928382
0.03558641 -0.17864731 0.095788606 -0.14083917 0.12849878 0.090700656 -0.16986501 -0.11171093
00000000: 2d02 d23a 0566 dd3d d3c6 8c3d 9fe7 ba3d
00000010: ab57 31be a7d1 10be bba8 8f3d bb06 e5b8
00000020: 3b8c fb3d 2a22 60bd 56e0 31be 75ff fcbd
00000030: 04ca f73b 67a2 38be 0177 403c e806 6ebd
00000040: bd6d 0ebc d894 b6bd 5699 cdbd eb18 053e
00000050: 0bd6 81bc 8dab f13d 53cd eb3b e5d9 b7bd
00000060: 71c0 083e 8f8e 31be 1a83 36be e2ee 04be
00000070: 35de e1bc 1fa0 9e3e d853 0d3d 6dfb 2b3c
00000080: bff0 8fbd f04d c2bd f5c6 1ebe cccf 6b3d
00000090: 3984 913d 7803 edbe 90ac 12be 2fa3 3e3b
000000a0: 9c8b 20be 7b9c 1e3e b0fa 05b8 98c0 d1bc
000000b0: 1137 753c 2479 973d 7625 24bc 713a 63bc
000000c0: 5ce3 9d3d 3a9f e6bd da78 05be b820 7e3d
000000d0: 5acc cdbd f0c7 82bd 891c a33c e6c6 9dbd
000000e0: 3366 ebbb a920 203e b9cb 043f 20e8 5ebe
000000f0: 100d 453d 6f45 f6bc c743 133e 127b 08be
00000100: b517 27bc 6938 b8bd 3e84 363e bcf6 75be
00000110: b56e 2d3e 334a eebd 1f6b 7f3d 0b9f c53d
00000120: ecaf e3bc ee14 2ebe 0cf9 00bd 254a f5bd
00000130: 6109 1a3d af38 403d 07d4 143e c7d5 4bbe
00000140: 1aa0 8bbb b758 a73d c054 06be 9157 5a3d
00000150: f19d 033e f0fb 8a3d afe0 cf3d 249d 883f
00000160: 5358 ff3d 3137 7abe d8fb 4abd 431c a9bd
00000170: 6530 763d 8c87 a33c a628 2cbd be7e 9a3e
00000180: 4cf2 90be 06ea e43e 7413 c8bd 6565 863d
00000190: ff84 763d 8f8f 15be c836 97bd 05f9 3dbe
000001a0: 825f 703e 344a 893e cec1 3d3e 87dc 8c3c
000001b0: ea9a 30be 32be c53d 8d7d fe3d 2bde bcbc
000001c0: 1c47 453e fff8 a2bc 30ce 12be 3561 3ebd
000001d0: 5d03 86bd dc6c c6bd 9412 0abb 2140 a1bd
000001e0: ba65 123e 51fd 86bd 3fbd 34be 6529 bebd
000001f0: 3557 34be e138 333e f6a8 6fbe 6fb8 103e
00000200: 7746 09bd d619 babd c66e 0dbc 32c3 d6bd
00000210: 7a69 b1bd 3846 763d c0e7 f73d adc1 093e
00000220: 56d2 c5bd 80a8 4a3e 235a f03d bc33 0abe
00000230: a025 09bd 8701 2b3c 7e51 e5bd c814 debc
00000240: b21c 513e abaf 47be 9702 303e 3ee3 2c3e
00000250: e3a6 bb3d 9e01 973d 62e8 453d 233e 8f3d
00000260: 8f2e d63d e5fb 683d 4722 14be 5b0b b5bc
00000270: 5405 013d 03a1 09be e6e4 14bd 5398 2dbe
00000280: eb2f 223e b853 3e3e 5824 bf3d dc28 873d
00000290: 70b2 a9bd dc61 d2bd 7554 933d af09 693d
000002a0: 9efb 27bd 7c35 013e d63f 0bbe d4ae d33b
000002b0: 49ee 3ebe 23b3 e03d 4ad7 5d3f 13e6 24be
000002c0: 14e9 59bd 6b9c 12be 9624 f03d d739 edbd
000002d0: d584 ab3d c2ed 7d3d 1dfc a93d f331 97be
000002e0: db09 c33e 031e 53be d732 813c 8036 d33d
000002f0: d6cf 3dbd 8334 f43d 240f 1cbe 106b c93c
00000300: 6980 173e 66dd 11be e578 d93d dc97 2ebe
00000310: e4a7 bc3d 528b 8fbd 1087 02bc 8109 323e
00000320: ab7e f1bd 1a1c 8bbd 7e6f 183d c760 8bbf
00000330: 3efd 4a3e 92a4 503e ce1f 863e c037 21be
00000340: eb3e f23d 5e9d 613e cc87 b1bc 4b37 a73e
00000350: cbdd cf3e 2d73 a8be 4172 353e a282 813d
00000360: 6024 02bd 5caf 033d 7d44 253d c51d 283e
00000370: 8133 8b3d 1dfe a4bd d74a b53c 5cf1 013e
00000380: afbd a73e b396 12bd 0c60 b83d 1518 953e
00000390: f98c fe3e 6339 3a3d 04d5 553d 72c0 a23e
000003a0: c1f8 d03c 9953 05bd 1f74 3abd d1d5 9f3d
000003b0: 32fc 2fbe 4d5b e6bd 4c17 a8bd 8b75 d2bd
000003c0: 4f07 763e 2357 38be 0a3d 57be 533c 30be
000003d0: 9634 193e 459b d93d 7520 bfbc bd58 2dbe
000003e0: 0ec3 113d 52ef 36be d12c c43d 2538 10be
000003f0: 2f95 033e 44c1 b93d 18f1 2dbe b3c8 e4bd

bias f4 [12]
0.118526675 -0.038309164 0.10141375 0.018311696 0.16560534 -0.15507314 -0.016705953 0.5614972
0.016619354 0.10118904 0.11239264 -0.03503112
00000000: 1dbe f23d 12ea 1cbd 03b2 cf3d 6902 963c
00000010: 7294 293e 7ecb 1ebe ecda 88bc 48be 0f3f
00000020: 5025 883c 333c cf3d 1d2e e63d cb7c 0fbd

weight f4 [2, 12]
0.013670642 -0.42537513 -0.6641098 -0.7467759 0.3439963 0.05454772 -0.6237983 0.8785853
-0.17872709 -0.33834165 0.04566556 -0.06339609 -0.20395528 0.07617886 0.056866728 0.88342977
-0.09551578 -0.13591953 0.5785712 -1.0690743 -0.42699298 0.08134383 -0.27673033 0.053282402
00000000: d4fa 5f3c c5ca d9be 1a03 2abf b52c 3fbf
00000010: 4820 b03e 6e6d 5f3d 3fb1 1fbf f7ea 603f
00000020: 3c04 37be 1e3b adbe cf0b 3b3d cfd5 81bd
00000030: a7d9 50be aa03 9c3d 16ed 683d 7428 623f
00000040: c79d c3bd 7d2e 0bbe 3e1d 143f 6dd7 88bf
00000050: d39e dabe 9897 a63d 99af 8dbe a63e 5a3d

bias f4 [2]
0.44271067 0.020540452
00000000: f9aa e23e 7344 a83c
