Spaceship Titanic/data/model_14.pth (torch, 4005 bytes, 4 tensors)

weight f4 [12, 29]
0	0xbe0c92bd	-0.13727851
1	0x3c653c22	0.013991388
2	0x3d82e086	0.06390481
3	0x3e0a3f21	0.13500644
4	0x3e1feefd	0.1561851
5	0xbe1dc147	-0.1540576
6	0x39df4628	0.00042586145
7	0xbe01eb9f	-0.12687539
8	0xbe5334c3	-0.20625596
9	0x3e01c6e7	0.12673531
10	0x3cb578ed	0.022152388
11	0xbd7bd868	-0.061485678
12	0xbe149f14	-0.14513808
13	0x3e327113	0.17425947
14	0x3dcc804d	0.09985409
15	0xbddcb7d0	-0.10777247
16	0x3dedeee8	0.116178334
17	0x3d87e1a4	0.066348344
18	0xbd8f6761	-0.0700214
19	0xbd0b8a7c	-0.034067616
20	0x3ddb294c	0.10701236
21	0x3d2240aa	0.03961245
22	0xbe15fcbc	-0.14647192
23	0xbd4a8552	-0.04944355
24	0x3df074d2	0.11741032
25	0x3e23aed9	0.15984668
26	0xbde91101	-0.11380196
27	0xbddd24a2	-0.10798003
28	0x3dca0413	0.09864058
29	0x3e32122d	0.17389746
30	0xbd50479b	-0.05084954
31	0xbe0a7433	-0.13520889
32	0xbd9e3aba	-0.07726045
33	0x3d18fb16	0.03734883
34	0x3ca9ca39	0.02072631
35	0x3dfe30f1	0.124116786
36	0x3da17005	0.07882694
37	0xbea5a5a8	-0.32352948
38	0x3d248932	0.040169902
39	0xbd341b17	-0.043971147
40	0xbdf3247d	-0.11872194
41	0xbcea4d7d	-0.028601402
42	0x3d9db8d2	0.07701267
43	0xbe1a1aa1	-0.1504922
44	0xbe026205	-0.12732704
45	0x3e1298da	0.1431612
46	0xbe1c352f	-0.15254663
47	0xbc85278e	-0.016254213
48	0xbd60db30	-0.054896533
49	0xbd803311	-0.0625974
50	0x3ddc3c4e	0.1075369
51	0xbdcd81a0	-0.1003449
52	0xbc092f6a	-0.008373121
53	0xbe3008ef	-0.17190908
54	0x3e1655f3	0.14681225
55	0xba84bc5f	-0.001012694
56	0xbe1e83f2	-0.1548002
57	0xbe0392d5	-0.1284898
58	0x3dd1746b	0.10227283
59	0xbcca0c57	-0.024664087
60	0xbd9344a5	-0.07190827
61	0x3e159dfa	0.14611045
62	0x3e1c8237	0.15284048
63	0xbe112a4f	-0.14176296
64	0xbde86eaa	-0.113492325
65	0xbdf4a0bf	-0.119447224
66	0xbe28cd0c	-0.16484469
67	0xbe0e3295	-0.13886483
68	0x3e138480	0.14406013
69	0x3dbba079	0.09161467
70	0x3df7c234	0.12097588
71	0xbd8673b7	-0.065650396
72	0x3c26427d	0.010147688
73	0x3d915d72	0.070979014
74	0xbdb1a726	-0.08674459
75	0x3cd81404	0.026376732
76	0x3ceb03ae	0.028688278
77	0xbe10ce03	-0.14141087
78	0xbc08ae33	-0.008342314
79	0x3de3ebdd	0.11128972
80	0xbdaa2812	-0.08308424
81	0xbc6357cd	-0.013875914
82	0xbe030f81	-0.12798883
83	0x3df62004	0.12017825
84	0x3e056719	0.1302761
85	0x3e0f4bee	0.13993809
86	0xbde69d32	-0.112604514
87	0xbe7e0786	-0.24807557
88	0xbdde3c73	-0.108513735
89	0xbdd5ace4	-0.10433367
90	0x3df1fa3e	0.11815308
91	0xbda4e281	-0.08051015
92	0xbd97d9bb	-0.07414576
93	0xbd19d148	-0.0375531
94	0x3dfb560a	0.1227227
95	0xbde07b32	-0.10960998
96	0x3e795979	0.24350537
97	0xbd93aefa	-0.072111085
98	0x3d50b3c8	0.050952703
99	0xbd4a88e3	-0.04944695
100	0xbe2f5173	-0.17120914
101	0x3e2f4697	0.17116772
102	0xbdb10b5f	-0.08644747
103	0x3ce8e0da	0.02842753
104	0xbe0e1081	-0.13873483
105	0xbdd117f3	-0.10209646
106	0xbe221bc3	-0.15830903
107	0xbdf859eb	-0.121265255
108	0xbe3b8d7d	-0.18315692
109	0x3d63d4b6	0.05562278
110	0x3d861776	0.065474436
111	0x3dc6b522	0.09702517
112	0x3df87911	0.121324666
113	0xbe126de6	-0.14299735
114	0xbd2f70ab	-0.042832058
115	0x3e2b9174	0.16754705
116	0x3d4d0e4f	0.050062474
117	0x3d8fe9cd	0.07027016
118	0x3e4605ad	0.19338103
119	0xbdb7a21d	-0.089664675
120	0x3db533c6	0.088477656
121	0x3e02f389	0.12788214
122	0x3d49f072	0.049301572
123	0x3e0e9a61	0.13926078
124	0xbd238a31	-0.03992671
125	0x3ddccafa	0.10780902
126	0xbe0f9dcb	-0.14025037
127	0x3dd5d313	0.1044065
128	0xbc27520e	-0.010212434
129	0x3dab5fb2	0.08367862
130	0x3deff5c9	0.11716802
131	0x3ddc4224	0.10754803
132	0x3cb636a7	0.022242857
133	0x3d6de7ac	0.058082268
134	0xbd8ddf65	-0.06927375
135	0x3d9022f6	0.07037918
136	0x3cb4f45a	0.022089172
137	0xbdcc1162	-0.09964253
138	0xbd88d115	-0.06680504
139	0xbe1ac380	-0.1511364
140	0x3e07c760	0.1325965
141	0xbe0f8111	-0.14014079
142	0xbda404c3	-0.08008721
143	0x3dbe32df	0.09287047
144	0x3e3ca5a9	0.1842257
145	0x3bd760a4	0.0065727998
146	0xbe48811a	-0.19580498
147	0xbe17b2e3	-0.14814334
148	0x3e187185	0.14887054
149	0x3e37f4aa	0.17964426
150	0x3e0a0bdc	0.13481086
151	0x3d408de0	0.047010303
152	0x3dcd7766	0.10032539
153	0xbdbc0b68	-0.09181863
154	0xbe08afa0	-0.13348246
155	0x3e1cc153	0.15308122
156	0x3e0b6750	0.1361363
157	0xbe09685a	-0.13418713
158	0xbdcbb21c	-0.09946081
159	0xbdb04227	-0.086063676
160	0xbe4d1b44	-0.20029932
161	0x3dc6af55	0.09701411
162	0xbe006a37	-0.12540518
163	0x3e3bfeb7	0.18358885
164	0x3e0bd136	0.13654026
165	0x3c1d939a	0.0096177105
166	0x3c708137	0.014679245
167	0xbddcc670	-0.107800364
168	0x3d3ed9cc	0.046594426
169	0xbe28731a	-0.16450158
170	0x3d444dcb	0.04792575
171	0x3e0a3c8f	0.13499664
172	0x3c8ce0b3	0.017196989
173	0xbe377b04	-0.1791802
174	0xbdb9abcf	-0.09065973
175	0x3e325b41	0.17417623
176	0x3e3f1b21	0.18662693
177	0xbc82d4b9	-0.015970575
178	0x3e23d5f2	0.15999582
179	0xbe2c11d9	-0.16803683
180	0xbc878ab9	-0.01654564
181	0xbe140719	-0.14455833
182	0xbd8af1b1	-0.0678438
183	0xbd962fef	-0.07333361
184	0x3e0615d1	0.1309426
185	0x3e2096e1	0.15682556
186	0x3ddf03c1	0.10889388
187	0xbda4a3b7	-0.08039039
188	0x3e14abaa	0.1451861
189	0xbccbbfab	-0.024871668
190	0xbe1939c2	-0.14963439
191	0x3c9fa3be	0.019487258
192	0xbcd5bf3c	-0.026092164
193	0x3c8c2d76	0.017111521
194	0xbe0f2e05	-0.13982399
195	0x3de8ea78	0.11372846
196	0x3e3d1719	0.18465842
197	0x3c734015	0.014846821
198	0x3deefc97	0.116692714
199	0xbdd3c5bc	-0.10340449
200	0x3c324029	0.010879555
201	0xbe3a78e8	-0.18210185
202	0x3de3d5e0	0.11124778
203	0x3d845af4	0.064626604
204	0xbe35e63a	-0.17763606
205	0x3e04a054	0.12951785
206	0x3cb6e457	0.022325678
207	0x3d5e4285	0.054262657
208	0xbd8387e1	-0.06422401
209	0x3e398873	0.18118457
210	0x3db5fcb3	0.08886089
211	0xbcb7a82f	-0.022419063
212	0x3d33cf87	0.043899085
213	0xbdd47e75	-0.10375682
214	0x3d6a4bef	0.057201322
215	0x3de6e4e6	0.11274128
216	0x3e26d621	0.16292621
217	0x3e17f502	0.14839557
218	0x3d803c12	0.062614575
219	0xbd6c65b0	-0.057714164
220	0xbd9560c9	-0.07293851
221	0x3d246082	0.0401311
222	0xbde9bc92	-0.1141292
223	0xbcadef5f	-0.021232305
224	0x3ce369cd	0.02776041
225	0x3c548fe5	0.01297376
226	0xbbf10a6c	-0.0073559787
227	0xbe272023	-0.16320853
228	0x3b32518e	0.0027209255
229	0xbc5fd0c4	-0.013660613
230	0x3d44cc70	0.04804653
231	0xbdbde4b0	-0.09272134
232	0x3f32f7a0	0.69909096
233	0xbdaed31d	-0.085363604
234	0xbdbc2bef	-0.09188067
235	0xbcafdfad	-0.021468962
236	0x3e0c8466	0.13722381
237	0x3dcaa1a0	0.09894109
238	0xbe5e6cf9	-0.21721257
239	0x3e17b8eb	0.14816634
240	0x3ebe86b7	0.37212154
241	0xbe817aab	-0.252889
242	0x3e976dde	0.2957601
243	0xbd2951e1	-0.04133785
244	0xbcbd0b5d	-0.023076707
245	0xbca2a6f1	-0.019854994
246	0xbd07f94b	-0.03319673
247	0xbdd29b26	-0.102834985
248	0x3d9ae766	0.07563667
249	0x3db639de	0.08897756
250	0x3e88569a	0.26628572
251	0x3df99334	0.1218628
252	0xbd827edb	-0.06371852
253	0x3dabef5a	0.08395262
254	0xbd1ba1b7	-0.03799602
255	0x3ce7df3f	0.028304694

bias f4 [12]
0	0xb8c5309c	-9.402746e-05
1	0x3e258158	0.16162622
2	0xbdaba7b6	-0.08381598
3	0x3e67439c	0.22584385
4	0xbd8f2de6	-0.06991176
5	0x3d236f8a	0.039901294
6	0xbd453a3e	-0.048151247
7	0xbddd8a7c	-0.108174294
8	0x3e17fc72	0.14842394
9	0xbd00f995	-0.03148802
10	0x3d91a181	0.071108826
11	0xbd591dfd	-0.053007115

weight f4 [2, 12]
0	0xbde00163	-0.109377645
1	0xbe5f07bf	-0.21780299
2	0xbe66da62	-0.22544244
3	0x3e8b3956	0.2719218
4	0x3e9e16bf	0.3087673
5	0x3d8c00ff	0.068361275
6	0x3da949d0	0.08266032
7	0x3db64a95	0.08900944
8	0x3dfbcb00	0.122945786
9	0xbda85964	-0.08220175
10	0x3ec7d59b	0.39030156
11	0x3c7703e6	0.015076613
12	0xbe50d4d9	-0.20393695
13	0xbe0857d7	-0.13314758
14	0xbdbe81b6	-0.09302084
15	0xbe8a2b67	-0.26986238
16	0x3d58cf98	0.05293235
17	0x3ef31875	0.47479597
18	0xbd4279b2	-0.04747934
19	0x3daf17ad	0.08549438
20	0x3f353f54	0.70799756
21	0xbbef7e36	-0.0073087467
22	0xbe7bdce7	-0.24595986
23	0x3e5bb9fb	0.21457665

bias f4 [2]
0	0x3df9823c	0.12183043
1	0x3d66c686	0.05634167
